models/model_STCN.pth (torch, 150655 bytes, 58 tensors)

conv.0.weight f4 [64, 18, 1, 1]
00000000: d136 12ba fb6e c73c a7b3 2f3f 3e01 043f
00000010: 9602 9b3e cd4f 0abe 0887 013f cbfb cebd
00000020: 96e8 4d3e 1726 373f b838 233e 1b92 ccbe
00000030: a3b2 a63e a295 20bd f813 5c3f 462c 793e
00000040: 0b1d 2e3e c5c8 5b3e a319 d33e a4ba ef3d
00000050: 53ee c23e cecc 00be b421 863f b185 123e
00000060: a86c d83e 121e 2f3e f593 c33e f601 cf3c
00000070: 518e 59be 8460 a7be 17c6 5bbe 12d3 0f3d
00000080: f656 fc3d 4619 9b3e cd1c afbe e00c 2a3e
00000090: ffc0 943e 39f6 59be 7045 b03e b68b b23d
000000a0: afa5 9ebd b87a 6bbe c2d6 193f 8fa6 fc3c
000000b0: 3b5a 153e 0c4a b73e 96ec 11bf ed83 40bd
000000c0: e243 ad3e f917 25bc 477e 6d3f 19e6 803d
000000d0: ea02 ea3d 6b11 adbe 52a1 12be 1322 643b
000000e0: 3329 70be a3ff a03d 79a9 84be e8b4 38bf
000000f0: 0798 983e 1205 9cbf 3bef 483e 310c 84be
00000100: 7f0a 38bf eb60 54bf 635e f4bd 728d 72bf
00000110: 85e3 023f c395 11bf 3588 41bf 460a 10be
00000120: d99d e7bd 7c74 9ebd 43f4 893d 0a53 d93e
00000130: d747 093f 6268 483e 7e2b 903e de6c 28be
00000140: cbe5 c63e d775 1f3f 3d03 ac3e b97f a3be
00000150: 39d7 903d 4752 643e 0d73 d33d 21a4 1b3e
00000160: d314 f43e 33e7 1fbe d896 8fbd a6a6 663e
00000170: 187f d6be db3b 9d3e 0f72 abbe 1fd6 c13e
00000180: 313a 0ebe da1d 343f 8aa1 0b3f 44b9 793f
00000190: 584b 933f c6f3 c03e e9fe 053f 94d4 3bbe
000001a0: c152 ccbe b081 c63e 2345 003f b31a 613e
000001b0: 3d6e cabe e651 c63d a29a 66be dec7 1c3d
000001c0: b37c 8a3d 3907 143f 948d 6dbe 124b 2c3f
000001d0: 9e77 b2bc 10e3 7a3e f5e8 4a3f 20dc be3f
000001e0: a80d ec3e 7bf7 593e e698 943e d823 5c3e
000001f0: ee5b c73d 2bcf 2d3e dd50 80bf b665 21be
00000200: 390f 4ebe 950b 233e e0cd 563c c408 08be
00000210: 1fea e1bd 5807 b63a 18a8 5fbe acc1 bfbd
00000220: 00d1 103b 20a9 94bf 45cf cf3e db9e 2ebe
00000230: c8c5 1bbf dcf2 ce3e fcc3 87bd a935 923e
00000240: a498 86be 1ba2 653e 76b8 9bbe ef77 c13e
00000250: 6706 e9be 6a11 933e b882 c03c d1e4 1c3f
00000260: f8cd 0a3f 2a82 1b3f 504a a13f ce64 dd3e
00000270: aa82 283f 168b 0e3e 4591 cebe 849b 843d
00000280: abc4 e03e e2c3 113e 72c5 603e f17e a13e
00000290: f450 bf3e 347e 453e 99ee 533f 1c1a 5e3e
000002a0: e5d7 fb3e ad3c 3f3b c289 3cbc a51d 693e
000002b0: 9851 37be d7a8 163d 10de 40be 1930 883e
000002c0: fcf5 5e3d f6de 4dbe 010c 073d a8f8 16bc
000002d0: 3a71 f93e cbf8 093f 92ff 013f ee51 95be
000002e0: 8a4b 9a3e 0b54 673e 957d 043f d88e b8bd
000002f0: e8cd 2f3e f894 8d3c e3be 133e 00f9 32bf
00000300: 0881 a1be 62f5 843e 88a6 9f3e e292 c93e
00000310: 0178 213e ab77 b2be dd7c 10be f43f 3b3e
00000320: 6b67 f33e b634 8f3e 7ca3 1f3e 6d26 56bd
00000330: ec43 a53e 2836 12bf c2fd 22bc 3cdb 26bc
00000340: 662e e6be 1c98 fbbe b4aa 6a3b 89fe 443e
00000350: 839f 6a3d 4576 f43e d39f 523e eeb6 393f
00000360: 34b3 c83d 714b ad3e decc cc3e 83c7 023e
00000370: a846 243e 37ce 75bd 1220 0a3e 75f4 0a3f
00000380: 3020 f33d c251 b13d 21ed 223f b3b9 96bf
00000390: bdcf 26be 5646 bebb d86b babe 4722 733e
000003a0: 1e5b 503e 7a0e 57be 1329 2b3c d172 c5be
000003b0: 1ce9 023f 7a71 4d3e 826b c03e c335 e0bd
000003c0: b836 c83e ca4c f3be d402 94bc 128b a53d
000003d0: 3771 ffbd b90a 97bd 2d0e 51be dbef de3b
000003e0: fbd7 90be 5669 843e 89f7 a1bd 12ef 4a3f
000003f0: 7171 0ebe b240 6b3e 135d 4cbe ece9 013f
-0.0005577626 0.024344912 0.686335 0.51564395 0.3027541 -0.13507004 0.50596666 -0.101066194
0.20108256 0.71542495 0.15939605 -0.3995522 0.32558164 -0.0392052 0.8596797 0.24333295
0.17003267 0.21463306 0.41230497 0.11705521 0.38072452 -0.12578127 1.0479035 0.14308812
0.42270398 0.17101315 0.3819882 0.02526949 -0.21245696 -0.32690823 -0.21462284 0.0351134
0.12321274 0.3029272 -0.3420166 0.16606474 0.29053494 -0.21285333 0.34427977 0.08718054
-0.077464454 -0.22996032 0.6009332 0.03084114 0.14585201 0.3579868 -0.57001626 -0.047000814
0.33840853 -0.010076516 0.9277081 0.06293888 0.11426337 -0.3380235 -0.14319351 0.003481035
-0.23453216 0.07861259 -0.25910547 -0.7215104 0.29803488 -1.2189047 0.19622509 -0.2579055
-0.71891016 -0.82960385 -0.11932065 -0.9474708 0.5112842 -0.56869143 -0.7559846 -0.14066419
-0.11309404 -0.077370614 0.06736042 0.42446166 0.53625244 0.19571069 0.28158182 -0.1644778
0.38847193 0.62289184 0.3359622 -0.31933382 0.070723005 0.22297011 0.103246786 0.15199329
0.47672138 -0.15615539 -0.07011193 0.22524509 -0.4189384 0.3070973 -0.33485457 0.37858674
-0.13889386 0.7035805 0.54543364 0.9754832 1.1507368 0.37685984 0.5234209 -0.18342811
-0.39906886 0.3877082 0.50105494 0.21982841 -0.3953723 0.0968359 -0.22519925 0.038276546
0.06762066 0.5782352 -0.23198539 0.6730205 -0.021785554 0.2450068 0.79261714 1.4910927
0.4610417 0.21285813 0.29022902 0.21498048 0.09734331 0.1697356 -1.0024678 -0.15761456
-0.20122994 0.15922387 0.013110608 -0.13284594 -0.11030983 0.0013887687 -0.21841466 -0.09363112
0.002209723 -1.1614113 0.40587822 -0.17052786 -0.60848665 0.40419662 -0.06629178 0.28556564
-0.2628833 0.2242512 -0.3041417 0.37786815 -0.45512697 0.28724223 0.023499832 0.61286646
0.54220533 0.6074549 1.2600803 0.4324097 0.6582438 0.13920245 -0.40345207 0.06474975
0.43900046 0.1423488 0.2195032 0.3154216 0.3736645 0.19286424 0.82785946 0.21689647
0.49188152 0.0029180453 -0.011507453 0.22765215 -0.1790222 0.036782112 -0.1883471 0.26599196
0.054433808 -0.20104584 0.032970432 -0.009214558 0.48719198 0.5389525 0.50780594 -0.2916407
0.30135757 0.22590654 0.5175412 -0.0901162 0.17168391 0.017282948 0.14428286 -0.69911194
-0.31543756 0.25968462 0.3118174 0.39369875 0.15768434 -0.34856924 -0.14110132 0.18286115
0.4753984 0.27969903 0.15589708 -0.05228274 0.32278383 -0.57113886 -0.009948196 -0.0101841055
-0.44957274 -0.49139488 0.0035807313 0.19237722 0.05728103 0.47746482 0.2056878 0.72544754
0.09799805 0.3384662 0.4000005 0.1277142 0.16042578 -0.060011115 0.13488796 0.5427926
0.11871374 0.08658172 0.6364308 -1.1775421 -0.16290183 -0.0058067245 -0.36410403 0.23743545
0.20347258 -0.21001616 0.010446805 -0.3856416 0.51136947 0.20062819 0.37582022 -0.10947754
0.39104247 -0.47519523 -0.018067755 0.08083166 -0.12472766 -0.07375092 -0.20415564 0.0068034953
-0.2828978 0.25861615 -0.07908542 0.7927104 -0.13910462 0.22973898 -0.1995738 0.5074756

conv.0.bias f4 [64]
00000000: 6fd1 bdbd e107 553e 9dc3 9bbe 9aa6 80be
00000010: a20f 9bbd 3fd2 263f 1a5b 203f 3cf8 15be
00000020: d573 073c 671e 83be b4a2 5c3e e55a 19be
00000030: 657b 243d 989e 3b3e 784a dcbe 06f3 f5bd
00000040: aa2f 3cbf 1430 12bf d4c0 a63e ab81 bc3d
00000050: c015 81be 89ba 043e d67f 9abd b4de 3ebe
00000060: 7abd cf3c 4da4 9bbe 9372 b4be 9b8e dbbc
00000070: ca9e b6bc 342f c1bd 3d5b 213f 54f5 163e
00000080: 898c 9ebd 55c8 153d cf61 133e bb82 24be
00000090: 7fef 64bd abef cd3e fac5 ef3d 5a78 1abe
000000a0: 797e 133e 8301 9abc d1b3 0f3e d24b 9dbe
000000b0: 2986 ac3e 4971 90be 9096 893d 63ee 843d
000000c0: 2e31 03be 7fb7 4ebd 0a29 24bc 56d6 0a3f
000000d0: 81ce 063e f80c 69bd 6d63 723d 033a 853e
000000e0: d1dc 89be beb5 483e 4a8a 753d 268c 2abe
000000f0: 483d 9bbe 29a7 553e 78fc 8fbe aeb9 eb3e
-0.09268462 0.20803787 -0.3042268 -0.25127107 -0.07571341 0.6516456 0.6263901 -0.14645475
0.008267363 -0.25609133 0.21546441 -0.1497608 0.04015674 0.18322217 -0.43025565 -0.12009244
-0.7351023 -0.5710461 0.3256899 0.0920442 -0.25211906 0.12961783 -0.07543914 -0.18639642
0.025358904 -0.3039879 -0.35243663 -0.026801398 -0.022292513 -0.094328314 0.63029844 0.14742023
-0.07741649 0.036568005 0.1439278 -0.16065495 -0.055892464 0.40221915 0.11707683 -0.15084973
0.14403714 -0.018799549 0.14033438 -0.3072191 0.33696106 -0.2821143 0.06718171 0.06490781
-0.1281173 -0.050467964 -0.01001955 0.542333 0.13164712 -0.056897134 0.05917685 0.26020822
-0.26926282 0.19600579 0.059946336 -0.16655025 -0.3032019 0.20864548 -0.28122306 0.460401

conv.1.weight f4 [64]
00000000: 5ae5 923e ad13 a03e 7157 683f aabe d83f
00000010: 245a a53e 5ecf bb3f 7399 b53f 6f48 9e3f
00000020: 0a9c 693f 7311 6b3e ae28 7d3f 768a c13f
00000030: f827 823e b0d1 7f3f dc38 873f 375f d23f
00000040: ac10 aa3f 7515 a93f aef2 953f 7b28 ba3e
00000050: d54c 7f3e 6d41 dd3d 8397 c13e c6e3 853f
00000060: a6b0 5b3e c300 223f 4019 bd3f 5b70 7f3f
00000070: 789b 1f3f 312f 873d 35d7 8a3f 564c ad3f
00000080: 6a92 d93f fc85 7e3f 5937 4e3e 63d3 2d3f
00000090: 3d6b a93e 1c2d b73f b87e 923f 4dc3 9b3f
000000a0: 8fc8 803f 8a5e b23f 1b84 723f 281b a53f
000000b0: 4ec4 8e3f 5dfb a138 1236 753f 1ed9 18be
000000c0: 792d 113e e097 8e3f 4fb6 8b3f b6d7 9c3f
000000d0: 9b87 fa3f 2372 d43f 22f6 683e e4c9 d63f
000000e0: 1edc 9b3f ef5b 193d 59d5 803f d893 ba3f
000000f0: 8f9d d83f ce3f 193e 2e99 683f 55a4 763f
0.28690606 0.3126501 0.90758425 1.6933186 0.32295334 1.4672658 1.4187454 1.2365855
0.9125372 0.22955875 0.988902 1.512038 0.2542112 0.9992933 1.0564227 1.6435307
1.3286338 1.3209673 1.1714685 0.3635901 0.24931653 0.108034946 0.37810907 1.0460136
0.21454105 0.6328241 1.4773331 0.99780816 0.623466 0.06600798 1.0846926 1.3538921
1.6997807 0.99423194 0.20138301 0.67900676 0.3308963 1.4310641 1.1444921 1.2168976
1.0061206 1.3935101 0.94732827 1.2898912 1.1153657 7.723898e-05 0.9578563 -0.14926574
0.14177503 1.1140099 1.0915011 1.225333 1.9572634 1.6597332 0.22750142 1.6780362
1.217655 0.03744119 1.0065109 1.4576368 1.6923083 0.14965746 0.90858734 0.963445

conv.1.bias f4 [64]
00000000: 058a 413f da3f 9fbf 1d0e f03e 756a dc3f
00000010: ce6c 96bf 47e4 7fbe e577 3c3f ae43 523f
00000020: 5c84 5fbe 94bf 64bf 2d74 df3e e23f 8abd
00000030: d25a 4a3e bb24 17bf 55b1 67be d18f 4e3f
00000040: e324 67be ebea 59be f9e3 76bd 0ce6 aebf
00000050: c79a 9b3e f590 f4be 9465 91be 35fb 65be
00000060: b45f 8abf 65c0 093e c86c 943f 3144 c9be
00000070: dbd9 0b3f 2688 95be 3c48 28be c9ac 853f
00000080: 8419 8f3f 25f7 46be bd88 073f d449 eabe
00000090: 00d8 7cbf 8cd8 62be b579 413e bd9f 84be
000000a0: 3a85 3e3f d904 99be 3024 6abf 4f11 073f
000000b0: 825b 05bf 09aa de3e 1076 76be bc2c ccbd
000000c0: 6fe2 b7bd 109f 943f 71b7 113e 7722 ecbe
000000d0: 7222 863f 16b5 26bf a0fc 6bbf c257 cf3f
000000e0: dda8 a33f 49c7 053e b14c 803f 01eb 04bf
000000f0: 393f d83f 60b1 2bbf 6593 1fbf 7901 843f
0.75601226 -1.2441361 0.46885768 1.7219988 -1.1751955 -0.24989425 0.73620445 0.8213452
-0.21827835 -0.89354825 0.43643323 -0.06750466 0.19761208 -0.5904042 -0.2262624 0.80688196
-0.22572665 -0.2128102 -0.060276005 -1.3663955 0.30391523 -0.47766843 -0.2839781 -0.22459109
-1.0810456 0.13452299 1.1595697 -0.39309838 0.54629296 -0.29205436 -0.16433805 1.0443355
1.1179662 -0.19430216 0.5294302 -0.4575945 -0.9876709 -0.22152919 0.18894084 -0.2590312
0.7442204 -0.2988651 -0.9146147 0.52760786 -0.52092755 0.43489102 -0.24068475 -0.0996947
-0.08978736 1.1611042 0.14230134 -0.46120045 1.0479262 -0.65120065 -0.9218235 1.6198657
1.2785908 0.13064303 1.0023404 -0.5192109 1.6894294 -0.6706753 -0.6233428 1.031295

conv.1.running_mean f4 [64]
00000000: d279 1444 2173 ac43 9bb9 7c43 8194 51c4
00000010: a431 d843 00e0 2944 a54e 2744 d487 b7c3
00000020: f166 1d44 4adc b943 ee45 9f43 5058 3443
00000030: 646f 1843 aada e142 8659 dd43 64c4 efc3
00000040: 0ba3 3644 600e 3944 07ed 3d43 e6af 0544
00000050: f72d 91c3 e08e 0743 75b9 4bc3 6cee 3844
00000060: d256 0044 749a 3dc3 c2e8 0ac3 cca9 1cc3
00000070: b222 1544 9947 5c43 8007 9543 c293 09c4
00000080: 9704 6943 11b7 3e44 b409 58c3 fbbb 8fc3
00000090: 65e1 eec2 12de 2c44 78b9 5443 578d 3e44
000000a0: 4eba 3043 f756 2744 9bb3 9e43 749e 00c3
000000b0: c569 91c2 d390 d4c3 3ef4 2a43 adfa f843
000000c0: ac2e 9cc3 fbf0 5fc4 5e0b 8ac3 3b28 e842
000000d0: 3674 fcc3 a95e a6c2 69f4 9143 c6b6 78c4
000000e0: d93e 49c4 f606 1d43 770a ebc3 85e7 4643
000000f0: b162 6fc4 be2a d243 9a96 7dc3 15a0 5dc4
593.90344 344.89944 252.72502 -838.3204 432.38782 679.5 669.2288 -367.06116
629.60846 371.721 318.54633 180.34497 152.43512 112.92708 442.6994 -479.5343
730.54755 740.2246 189.92589 534.7484 -290.3591 135.5581 -203.72444 739.72534
513.35657 -189.60333 -138.90921 -156.66327 596.5421 220.27968 298.0586 -550.3087
233.01793 762.8604 -216.0379 -287.4686 -119.44022 691.46985 212.72449 762.20844
176.72775 669.3588 317.40317 -128.61896 -72.70658 -425.13144 170.95407 497.9584
-312.36462 -895.7653 -276.0888 116.078575 -504.9079 -83.18488 291.90945 -994.85583
-804.982 157.02719 -470.08176 198.90437 -957.54205 420.33392 -253.58829 -886.5013

conv.1.running_var f4 [64]
00000000: c6ee a449 9142 e548 9403 7548 874d 1b4a
00000010: 00fa 2949 c66e cd49 ccad bf49 3fb7 fb48
00000020: c30e af49 adfc 0149 393d c048 ef16 0348
00000030: a2bd b747 6458 6247 162a 3049 e909 6049
00000040: 1f31 ed49 f382 f249 a38b 1448 8fd9 8949
00000050: be88 8f48 2e16 7847 9102 2c48 894f f249
00000060: b111 7949 66b7 0c48 2d0a 8e47 552a a347
00000070: d8ec a449 6e36 2a48 4b99 a748 13b1 8c49
00000080: b993 5448 4388 004a 0a6d 2448 1945 9748
00000090: 3f0a 3547 2b5a d649 2efc 1d48 930a 004a
000000a0: 733f cc47 a35f c649 fb22 b748 37bc 8347
000000b0: 079b 9346 8483 2949 50bb e547 c764 5649
000000c0: 6138 af48 7b03 314a ebd5 9248 124d 7247
000000d0: c3a4 7a49 74b0 c546 5427 a048 3c00 5d4a
000000e0: 9cce 0f4a 0dba cc47 7dc3 4949 eba0 2248
000000f0: b0e9 4d4a 3fa2 1c49 cec1 6948 71a3 2f4a
1.3511288e+06 469524.53 250894.31 2.5444818e+06 696224.0 1.6829048e+06 1.5702335e+06 515513.97
1.4340724e+06 532426.8 393705.78 134235.73 94075.266 57944.39 721569.4 917662.56
1.9430759e+06 1.9866544e+06 152110.55 1.1292659e+06 293957.94 63510.18 176138.27 1.9850091e+06
1.02018706e+06 144093.6 72724.35 83540.664 1.351067e+06 174297.72 343242.34 1.1525464e+06
217678.89 2.1058728e+06 168372.16 309800.78 46346.246 1.7559734e+06 161776.72 2.0978288e+06
104574.9 1.6250764e+06 375063.84 67448.43 18893.514 694328.25 117622.625 878156.44
358851.03 2.9001908e+06 300719.34 62029.07 1.0266362e+06 25304.227 327994.62 3.620879e+06
2.356135e+06 104820.1 826423.8 166531.67 3.373676e+06 641571.94 239367.22 2.8776602e+06

conv.3.weight f4 [1, 64, 1, 1]
00000000: 1c8e 16bb cc51 efbb a9c5 7abe 22ee 1cc0
00000010: 8041 873c 14f9 1c3f a1ff 313f 6e48 4abf
00000020: ce08 e53e f00e 1fbb b230 3ebe 5fd5 1cbf
00000030: 37bf 8ebe 71d7 e5be c03a de3e cc13 55bf
00000040: 0774 143f 1907 103f 393b 73be bfde af3c
00000050: ff7f f3bc 8d7f a3bc c8b4 ff3c e4ac ef3e
00000060: fdcb 86bb 61f3 043e 2e93 f4bf ce4d 4cbe
00000070: 39a8 86be 93a1 acbc 2ac2 8dbe 7738 93bf
00000080: 46b0 aebf 2c92 ec3e f282 cc3d 3ce9 4d3a
00000090: 8c8f a2ba 0c98 213f 4b95 993e 775a 063f
000000a0: f86c 063f 1432 153f 8710 8bbe c37e 2bbf
000000b0: 96f1 b7be a251 9cb8 a290 5dbe b320 f2bd
000000c0: 3592 2dbc 1e26 efbf e946 883e 0af9 a3be
000000d0: 8757 a3bf 7eb4 babf b5c4 d9bb d41c 11c0
000000e0: de11 fdbf 6663 0cbd ff9e 60bf 3d6b 3dbf
000000f0: cf66 12c0 21f4 4cbc bd0d 38be 8c3d cebf
-0.0022972887 -0.007303452 -0.24489464 -2.4520345 0.016510725 0.61317563 0.69530684 -0.7901677
0.4473328 -0.0024270378 -0.18573263 -0.6126308 -0.2788026 -0.4489093 0.43404198 -0.8323333
0.57989544 0.5626083 -0.2375306 0.021468518 -0.02972412 -0.019958282 0.031214133 0.46811593
-0.0041136728 0.12983467 -1.9107416 -0.19951555 -0.2630022 -0.021073138 -0.27687198 -1.1501607
-1.3647544 0.4620527 0.09985913 0.0007854884 -0.00124024 0.6312263 0.29996714 0.5248179
0.52510023 0.5827954 -0.27161047 -0.669903 -0.35926503 -7.453865e-05 -0.21637204 -0.11822643
-0.0105939405 -1.8683507 0.266166 -0.3202594 -1.2761086 -1.4586332 -0.0066457638 -2.2673845
-1.9771078 -0.03427448 -0.8774261 -0.7399176 -2.287525 -0.012509377 -0.1797399 -1.6112533

tcn.network.0.conv1.bias f4 [32]
00000000: 56c6 74be ed63 c23c cbaf e5bd 2fb3 1abe
00000010: 4ef4 0abe fe1a 71be fc57 24be 9592 8dbe
00000020: 189d 76be 2668 92bd 10bc 4a3e bad5 f8bd
00000030: 502a 113d fc4d 3dbe 7bdf 723e dc25 dc3d
00000040: 88a0 18be 0dca 8fbe bae1 a73d b50f 09be
00000050: c6af a53d 3568 cebd d030 1ebb 198a 2cbe
00000060: 8a9c 85be d457 b3be fd0b 22be 824f 5fbe
00000070: 2b14 5fbe ba8d dcbd 50e9 30be 079d 13be
-0.23903784 0.023729289 -0.112151705 -0.15107416 -0.13569757 -0.23545453 -0.16049188 -0.27650896
-0.24083364 -0.07148771 0.19798303 -0.1215014 0.035440743 -0.1848678 0.23718064 0.107494086
-0.14904988 -0.2808384 0.08197351 -0.13384898 0.08090167 -0.1007847 -0.0024137981 -0.16849555
-0.26095992 -0.35027945 -0.15824886 -0.21807674 -0.21785037 -0.1076922 -0.17276502 -0.1441537

tcn.network.0.conv1.weight_g f4 [32, 1, 1]
00000000: 1231 5f3f 123c b53e f6c0 d03e 0328 063f
00000010: 4cf4 023f da61 9e3e 91c8 233f 7dbe 2d3e
00000020: 06c8 383f 9c57 353f 8a69 703f bc54 503e
00000030: c9cc a73e 27e3 093f 18e1 eb3f e3b7 2a3f
00000040: e790 173f fdb3 243f 0cfa 133f 20be 033f
00000050: 2fdc 813e 3058 943f 3e0b 1b3f 5b44 513f
00000060: 973d d23e abb9 6b3e b533 073f b1ae 043f
00000070: b228 183f effe d43e 3aaf 003f a07c 673f
0.8718425 0.35397393 0.40772218 0.52404803 0.5115402 0.3093403 0.63977915 0.16967197
0.7218021 0.70836806 0.9391104 0.20344824 0.32773426 0.5386223 1.8428068 0.6668684
0.5920548 0.6433714 0.57803416 0.5146198 0.253633 1.1589413 0.6056403 0.8174493
0.41062614 0.23020045 0.52813274 0.5182906 0.59437096 0.4160075 0.50267375 0.9042454

tcn.network.0.conv1.weight_v f4 [32, 12, 4]
00000000: fe83 7b3e 6faa 963d bde4 c23d 00d3 b73e
00000010: aef7 b13c 63e2 2d3b 7d1f 14be 792a b1be
00000020: 6a06 043f 713c 143f 74c9 03be a040 be3e
00000030: 5372 a0be b3a5 a0be 8b38 a0be 3880 9fbe
00000040: 9a4e 203f 0329 843f d946 9c3f 390d 893f
00000050: c728 03bf 8398 14bf 15e4 30bf 0126 33bf
00000060: a4a1 28be 2e46 89bd bed8 43be 826f 80be
00000070: 3632 9cbe f7d3 95be 7793 c8be 646e a6be
00000080: d797 da3c 442f 543d e2ec 1b3d 10e9 c73c
00000090: 33ef 28bf 569a 0fbf 157e dfbe 08bd dcbd
000000a0: 07d0 89be cc2c 5dbe cada 66be e789 35be
000000b0: 19d2 36be 08d5 67be c9b1 3dbe 6d33 d43d
000000c0: ad8a 07be b321 923e e025 2d3e 6e79 11be
000000d0: 3b7a f2bd 9ca0 d23d 91d6 f2bc 469c 8dbd
000000e0: f2f0 143e 952d 483e 492f f5bd 2842 89bd
000000f0: c064 b1be af17 253e 7d61 b6be debe ccbd
00000100: a440 d6be eaa0 c8be 1be7 a8be c02c cfbe
00000110: 9da2 723e 62c0 713e 46b4 9bbd ad0a 203e
00000120: 260d af3e 26ca a03e 6b56 a8be 8df6 9cbe
00000130: 5e48 b0be 2bad bebe 3277 5e3e bc39 9fbe
00000140: 1f3c 5dbe a996 66be c2f6 69be 91bc 5fbe
00000150: 9a52 eabd 3d18 b5be b447 79be 0ac1 adbe
00000160: 9ae1 cabe 0137 8ebe 9f43 c4be eea7 c6be
00000170: 9b08 d2be a195 b0be ce28 d73c d760 d53d
00000180: a3de c6bd c5ce 013f 69ab 2fbd 926a 863e
00000190: 20c2 36bd 38a5 fabd 6ea8 d8bd c52f 5abe
000001a0: 0805 793e 880c a23e e906 9d3e 41b5 313f
000001b0: 923b b7be b064 7ebe bd13 5dbe de44 78be
000001c0: 9dbe f13e 4191 023f 1217 263f e00b 7cbd
000001d0: 8f04 e9be f719 4fbf e2ee 04bf d70c 47bf
000001e0: 6380 87be ac58 56be 9c35 ddbd a61d 59be
000001f0: 0196 d1be 5dad 05bf be15 d5be 8d71 fcbe
00000200: ea03 adbe 74f8 c1be c9c1 9f3d c9cc c5be
00000210: 8fcb 24bf 74dc a1be 653a a6be e20f 143e
00000220: c55c 723e 5a53 323e e2e3 9fbe 941a ea3d
00000230: d4f1 cebe 66ea a2be b2b2 a6be ab87 b3be
00000240: e434 9dbc 5d06 aabd 9980 4bbd 1c25 13be
00000250: 0b50 383d 4c1f bdba 7708 e4bd 5083 c73c
00000260: f251 c9bb 46d0 9fbd b630 82bd 3383 38bd
00000270: 778b a7bd b276 f1bc 25c4 da3c ba37 263e
00000280: dbb5 16be 4279 16bc f4c5 993d 46d7 15be
00000290: 1eaa b23d bed0 bbbc 0295 ebbd 2430 aa3d
000002a0: f8f0 1f3e cded a23d 3152 99bd 3abd 0dbe
000002b0: 9f44 8bbd 30d8 48bd 7a25 433d ea2f ac3c
000002c0: cb67 16be e56f 73bd 9cff fb3c 28e0 6fbd
000002d0: 31f0 b53d 58f2 39bd d05a d5bd 61f9 9bbd
000002e0: e1ea 24be 2dc2 51bd 7c53 e03d e9a2 d9bd
000002f0: 8a3c ffbd 6dfb 0a3e 046d 08be 9f6b 27be
00000300: 2e0d b13d 221e e83c 115c bf3e 6535 473f
00000310: 792d 89be 85bb 4bbe 1608 51bd ff06 87bd
00000320: 70c9 833e 27b8 c4bd fa24 8f3e 8f1b 4b3f
00000330: 5639 c33d a1a6 f33d b802 00be 53a9 86bb
00000340: 2907 003d 519c 8b3e 29c0 313e 162f 86be
00000350: bb05 dfbe d572 01bf 6c4a 41bf 8515 e1be
00000360: 95c6 efbd e346 243e 7c0a ab3c 9f26 d13d
00000370: 5574 64be 986f f2bd 750f 29be 0a54 47be
00000380: 72df 87be 8c21 59be 3693 e7be 3760 babe
00000390: 6c93 13bf 48a8 c9be ad9b 74be 1630 edbd
000003a0: d155 a1bb fc6f ed38 69d5 9abd cab2 40be
000003b0: 6566 1bbe b411 8fbe 9da5 93be 415c d5be
000003c0: 6588 dcbc f600 4dbe 27fd d33e 0a57 e2bd
000003d0: 5187 ccbd 53df bcbd 91e1 a2bd e7bc 8ebe
000003e0: 8f82 a3be 6604 abbe 08c1 fe3e c700 a93e
000003f0: d92c fc3e 4561 ac3e 6ac7 dc3e b14c d1be
0.2456207 0.073567264 0.095162846 0.35903168 0.021724548 0.0026532642 -0.14465137 -0.34602717
0.5157229 0.57904726 -0.12869817 0.3715868 -0.31337222 -0.31376418 -0.3129314 -0.3115251
0.62619936 1.0325016 1.2209121 1.070716 -0.51234096 -0.58045214 -0.69098026 -0.69979864
-0.16467911 -0.06702839 -0.1912565 -0.25085074 -0.30507058 -0.2926328 -0.39175007 -0.32506096
0.026683731 0.05180289 0.038067706 0.024403125 -0.6598999 -0.5609487 -0.4365088 -0.10778242
-0.26916525 -0.2159912 -0.22544399 -0.17728387 -0.17853583 -0.22639859 -0.18524851 0.10361371
-0.13236494 0.28541335 0.1690898 -0.14206478 -0.1183972 0.1028454 -0.029643329 -0.069145724
0.14545038 0.19548638 -0.119719096 -0.067020714 -0.3464718 0.16122316 -0.35621253 -0.099973425
-0.41846192 -0.39185268 -0.3298882 -0.4046383 0.23694845 0.23608544 -0.07602744 0.15629072
0.3418972 0.31404227 -0.32878432 -0.30656853 -0.34430212 -0.37241492 0.21725157 -0.31098735
-0.21604966 -0.2251841 -0.22848037 -0.21849276 -0.11441536 -0.35370055 -0.24343759 -0.3393634
-0.39625245 -0.2777634 -0.3833284 -0.38799995 -0.4102219 -0.34489158 0.026264574 0.10418861
-0.09710433 0.5070613 -0.04288808 0.26253182 -0.044618726 -0.12238544 -0.105790004 -0.21307285
0.24318326 0.31650186 0.30669335 0.69417197 -0.35787636 -0.24843097 -0.21589561 -0.24245021
0.4721574 0.5100289 0.6487895 -0.061534762 -0.4551129 -0.80898994 -0.51927006 -0.7775397
-0.2646514 -0.20932263 -0.10801241 -0.21202716 -0.40934756 -0.52217656 -0.4161815 -0.49305382
-0.3379205 -0.37884867 0.078006335 -0.386328 -0.64373106 -0.31613505 -0.32466426 0.14459184
0.23668201 0.17414609 -0.31228548 0.114308506 -0.40418875 -0.31819457 -0.3255821 -0.35064444
-0.01919026 -0.08301995 -0.049683187 -0.14369625 0.04499821 -0.0014428883 -0.11134427 0.024354607
-0.006143802 -0.07803397 -0.06356947 -0.045046996 -0.08180898 -0.029475544 0.026704857 0.16232195
-0.1471781 -0.009184184 0.0750846 -0.14632902 0.087238535 -0.022926684 -0.1150303 0.08309963
0.15619266 0.07955513 -0.0748638 -0.13841715 -0.06800198 -0.049034297 0.047643162 0.021018941
-0.14688031 -0.059432883 0.030761532 -0.05856338 0.088837035 -0.045397133 -0.10417712 -0.076159246
-0.16105224 -0.05121057 0.109534234 -0.10626776 -0.12462719 0.13572474 -0.13322836 -0.16349648
0.08645092 0.028334681 0.3737493 0.7781585 -0.26792505 -0.19895752 -0.051033102 -0.06593131
0.25739622 -0.09605437 0.27957898 0.79338926 0.0953242 0.11897016 -0.12501037 -0.0041095405
0.03125683 0.27267697 0.1735846 -0.262078 -0.4355906 -0.50565845 -0.75504184 -0.4396173
-0.117077984 0.16042666 0.020879023 0.102124445 -0.22310002 -0.11837691 -0.16509803 -0.19465652
-0.26537663 -0.21204203 -0.452295 -0.3640153 -0.5764682 -0.393862 -0.2388751 -0.11581437
-0.00492356 0.000113218994 -0.07560236 -0.18818203 -0.15175779 -0.27943194 -0.2883729 -0.41671947
-0.026920507 -0.20019898 0.41404077 -0.11051758 -0.09986747 -0.09222283 -0.0795318 -0.27878496
-0.31935546 -0.33401793 0.49756646 0.33008406 0.49252966 0.3366796 0.4312089 -0.40878823

tcn.network.0.conv2.bias f4 [32]
00000000: de92 98be 9979 663e 8636 86bd 67b3 873e
00000010: 9a9a d23d dc84 91bc 42ee 03be 6d34 adbc
00000020: 9073 f6bc ab85 a4bb 0aaa 01be 2195 20be
00000030: d6e6 febd 058a bc3b ce10 783e 443c 3a3b
00000040: 118b 37be 5af2 cbbe 4ffd 8bbc bd77 efbd
00000050: 196c 1bbe 1373 4c3e c788 24be 7585 ce3d
00000060: 3103 cabd 10dd 1abd 7e01 14bd 5b3b 38be
00000070: f7ef 8bbd 201f 0abe 2e83 233e 47e5 a23e
-0.2979955 0.22507323 -0.06553368 0.2650406 0.10283394 -0.017763548 -0.12883857 -0.021143163
-0.030084401 -0.0050208173 -0.12662521 -0.15681888 -0.12446372 0.005753758 0.2422516 0.0028417269
-0.17924143 -0.39833337 -0.01708856 -0.1169276 -0.15177955 0.19965772 -0.16067801 0.10084049
-0.0986389 -0.037808478 -0.036134236 -0.17991392 -0.06832879 -0.13488436 0.1596801 0.3181555

tcn.network.0.conv2.weight_g f4 [32, 1, 1]
00000000: 79e0 113f b148 46be bc69 c83c 9171 fc3e
00000010: d749 0c3f c1e6 5d3e 97af d73e 1127 c83e
00000020: 6f12 2b3e 8131 583e 1c4c 013f eeec d33e
00000030: 2e12 df3e 4409 033f e13e 923e cfad de3e
00000040: 20a5 e33e fc15 273f 1406 293f 6e5c 053f
00000050: deb9 ea3e 767f 3b3f fb50 0c3f 13a7 043e
00000060: 7430 023f ea5f 133f 7e04 f73e f23c 4e3e
00000070: 927a da3e 02e5 0a3f 3ee7 e53e 0a0a d73e
0.56983143 -0.19363667 0.02446448 0.49305394 0.5480017 0.21670057 0.42126152 0.39092305
0.1670625 0.21112634 0.5050676 0.413917 0.43568558 0.51186013 0.28563598 0.4349198
0.44461918 0.6526792 0.660249 0.5209416 0.4584493 0.73241365 0.54811066 0.12954359
0.50855184 0.5756823 0.48245615 0.20140436 0.4267164 0.5425569 0.44902986 0.41999847

tcn.network.0.conv2.weight_v f4 [32, 32, 4]
00000000: fb54 de3f 6160 8d3f 683c 733f 9581 413f
00000010: 195a c3be 8573 40be eb58 7dbe 9c88 613e
00000020: 3714 233f 69e3 183f 3473 f33e 504b ff3e
00000030: d523 82be d3d8 933e 9d10 703e e37d 8ebe
00000040: 3c35 0c3f 1832 0a3f 17a3 133f 748b 1e3f
00000050: 68e3 8bbe 00d2 f43d 72e5 c63e 36f4 dcbe
00000060: 7c25 343e 261f 27be 1a23 1cbf cb72 76be
00000070: a878 133e c412 193f 30df 083f f07f 5c3f
00000080: b25a 2a3f 6cff 2abf 0ffe f4be cc6a 9fbe
00000090: 299c 733f acdb 053f be3b 0c3f 6312 6abe
000000a0: 9eca ddbd e22b 9dbb 950d eebd b0a9 613d
000000b0: 5ef5 573e 4bd7 b33e e927 9e3e b33f 533e
000000c0: f65f ee3e c022 0a3f 19e3 f73e 4aca f93e
000000d0: 4cc2 8cbe 7c32 bd3e 2bb0 923e 9ca3 2bbe
000000e0: d48c 47bd fc94 20be 3b75 03be 375f 92be
000000f0: 67ce b5bd 748f e3bc fd1a 143b 2814 7e3e
00000100: 1b86 3e3f 284f 163f 231b 713e efdd ec3d
00000110: 069e b23e ed86 1b3f c9f3 063e 8979 ba3e
00000120: 3e48 22be e187 50bc df76 a2be a98a b1be
00000130: bdb7 cdbe 499b dabe f308 8d3e a950 dabd
00000140: fe36 123e 6163 093e fab3 e73e 87e9 3f3f
00000150: 3407 8e3e aec7 d53e 1482 f33e cd30 653e
00000160: 744d c63f 1ca6 b03f 4121 5f3f aadc 593e
00000170: ed43 c8be 116f 723d 70a1 a6bd 3bfb 88be
00000180: 424f b4be da5a 7d3e d662 943e 23c9 70be
00000190: 7c55 0c3f 8bd1 033f c11c d63e a067 023f
000001a0: 04a0 a03e 0a4e 80be 1905 b53e d6d5 9d3b
000001b0: ccfa 913e 7f12 1a3e b768 87be 8904 4c3e
000001c0: 9ad1 563e d318 79bd 4b95 a2be db9d 6f3d
000001d0: ffeb 99be daca 36be 5674 4e3e ce69 703e
000001e0: b8be 6b3f 13ce 593f c11b 513f 73a8 383f
000001f0: 0aa3 dbbd 8ed7 4dbe 0f55 0bbe 0f75 aebe
00000200: a04c 52bf 1c53 f1be 433a 4fbf 3d24 f7be
00000210: 311a 78be f82b 75be 0b8f 8bbe 14a5 09be
00000220: b7d9 90be 6e42 b5be 285f 27a6 e284 ca3c
00000230: ab7b 9d3e d1c1 1d3f 4902 6b3e b329 12bf
00000240: 85b4 2abe b79d 7e3d 1d9b 593e 4027 933e
00000250: a8e4 ddbe dcb3 05bf 2834 81be 00de 10bf
00000260: 9b92 483e e162 083f 1543 723e bcd6 453e
00000270: 0ef5 b03e 47cd 823e 38fc 303e 8a17 0b3f
00000280: 710b 08be 905d b13d 040f 403d 2cd2 0abd
00000290: cdb8 2ebe 223a 4ebe 1cde 2a3b 183f 133e
000002a0: a65e 203f 1f2f 153f 0219 433f dfb1 db3d
000002b0: 9a95 8bbe bc36 d53e 9002 bc3e c1be ddbe
000002c0: f2f3 883e ba84 923e 8c0b 8f3e 6697 293d
000002d0: dd70 923e fd33 0abf 465a e93e 6975 efbd
000002e0: da34 3cbe c7ba d13d d4f9 5f3c 5c9a efbd
000002f0: 588f 4b3e 2417 dc3e 0074 8fbd c294 163e
00000300: 2841 edbe 55c3 3dbf 8b98 76bf b394 81bf
00000310: ef4c 0a3c d2af 13be 8991 ebbd 8604 593e
00000320: 7680 4a3f 128c d7be 3bdb cabe 9d09 e43e
00000330: 30ea 0c3f a65d fbbe 0528 0d3f a7d4 103f
00000340: 2c84 613f e01c 013f d553 7a3f 7a74 85be
00000350: 2381 0dbe 78bb e9be d543 71bf 3ade 15bf
00000360: f80c 08bf 4c46 01bf 1b92 cebe 94e5 b93d
00000370: 43b2 d0be 30f1 90be f3c8 dfbe f2ef b03e
00000380: 0448 35bf 91b2 2abf 8ebe 42bd c928 29bf
00000390: ae1b d73e 8fc5 b6be 0400 483e 512d a73a
000003a0: e924 24bf 7cc1 32bf 89f8 e2be c5dc c13e
000003b0: e73b 4a3d 2dcc 90be e484 72be f0ab 90be
000003c0: 249c 42be 2a52 32bd cb32 d3bd f303 ebbd
000003d0: 4918 0c3f f3eb 91be 6f1b 053f c82e 4e3e
000003e0: 3b5e cc3d a04b 78bc c8f4 30bd 879d df3d
000003f0: 793c e33e 5eea de3e 68f4 32bb 0837 023f
1.7369684 1.1045038 0.9501405 0.7558835 -0.38154677 -0.18794067 -0.24740951 0.22024769
0.6370272 0.59722 0.4754883 0.49862146 -0.25417963 0.2887636 0.23443837 -0.2783042
0.5476873 0.53982687 0.5767073 0.6193154 -0.27321935 0.11954117 0.38846928 -0.43155068
0.17592424 -0.16320476 -0.6099106 -0.24067228 0.14401495 0.5979426 0.5346556 0.8613272
0.6654464 -0.6679599 -0.4785008 -0.31136167 0.95160156 0.5228832 0.5477866 -0.22858576
-0.10829662 -0.004796491 -0.11623684 0.055093467 0.21089694 0.35125193 0.30889824 0.20629768
0.46557587 0.53959274 0.4841545 0.48787147 -0.27491987 0.3695258 0.2865003 -0.16761631
-0.04871829 -0.15681833 -0.12837689 -0.28588268 -0.08877259 -0.027778365 0.0022599094 0.24812376
0.7442338 0.5871453 0.23545508 0.11565768 0.34886187 0.60752755 0.13178934 0.3642085
-0.1584787 -0.012727709 -0.31731316 -0.34676102 -0.40179244 -0.42696598 0.2754589 -0.10659916
0.1427879 0.13416816 0.452545 0.7496571 0.2773987 0.41753906 0.4756018 0.22381897
1.5492387 1.3800693 0.87160116 0.21275583 -0.39114323 0.059187952 -0.081362605 -0.26754174
-0.3521672 0.24741688 0.28981656 -0.23514228 0.5481794 0.5149161 0.41818812 0.5093937
0.31372082 -0.2505954 0.35355452 0.004816751 0.28511655 0.15046118 -0.2644708 0.19923605
0.20978394 -0.06081469 -0.31754526 0.058500152 -0.30062863 -0.17850819 0.20161566 0.23477861
0.9208789 0.8508007 0.81682974 0.72132033 -0.107244566 -0.20101759 -0.13606666 -0.34073684
-0.8214817 -0.4713372 -0.80948275 -0.48269835 -0.24228741 -0.23942554 -0.2725757 -0.13441879
-0.28291103 -0.35402244 -5.8068725e-16 0.024721567 0.30758414 0.61623865 0.2295009 -0.5709488
-0.16670425 0.062162127 0.21250577 0.28740883 -0.43338513 -0.5222757 -0.25235105 -0.56588745
0.19587176 0.5327588 0.23658402 0.19320196 0.34561962 0.2554724 0.17283714 0.5433279
-0.13285615 0.08660424 0.04688932 -0.03389184 -0.17062683 -0.20139363 0.002607233 0.14379537
0.6264442 0.58275026 0.76210034 0.107272856 -0.27262574 0.41643322 0.36720705 -0.43309596
0.26748616 0.28616887 0.27938497 0.04140415 0.28601733 -0.5398558 0.45576686 -0.11692316
-0.18379536 0.10240703 0.0136704035 -0.116993636 0.198789 0.42986405 -0.07004547 0.14705184
-0.46338773 -0.7412618 -0.9632651 -1.0123504 0.008441194 -0.14422539 -0.11502368 0.21193132
0.79102266 -0.42099053 -0.39620385 0.44538584 0.5504484 -0.49094886 0.5513919 0.5657448
0.88092303 0.50434685 0.9778417 -0.26065427 -0.13818793 -0.4565084 -0.9424413 -0.58542216
-0.5314479 -0.5049789 -0.40345845 0.09076992 -0.40761003 -0.2830901 -0.43708 0.34558064
-0.7081301 -0.6667872 -0.04754501 -0.6607786 0.42013305 -0.356976 0.19531256 0.0012754594
-0.6411882 -0.69826484 -0.44330242 0.37863746 0.049373534 -0.28280774 -0.23683506 -0.28256178
-0.19004875 -0.04353539 -0.10312422 -0.11475363 0.54724556 -0.28500327 0.51994985 0.20135033
0.099789105 -0.015154749 -0.04320219 0.10918718 0.44382074 0.43538183 -0.0027306322 0.5086522

tcn.network.0.net.0.bias f4 [32]
00000000: 56c6 74be ed63 c23c cbaf e5bd 2fb3 1abe
00000010: 4ef4 0abe fe1a 71be fc57 24be 9592 8dbe
00000020: 189d 76be 2668 92bd 10bc 4a3e bad5 f8bd
00000030: 502a 113d fc4d 3dbe 7bdf 723e dc25 dc3d
00000040: 88a0 18be 0dca 8fbe bae1 a73d b50f 09be
00000050: c6af a53d 3568 cebd d030 1ebb 198a 2cbe
00000060: 8a9c 85be d457 b3be fd0b 22be 824f 5fbe
00000070: 2b14 5fbe ba8d dcbd 50e9 30be 079d 13be
-0.23903784 0.023729289 -0.112151705 -0.15107416 -0.13569757 -0.23545453 -0.16049188 -0.27650896
-0.24083364 -0.07148771 0.19798303 -0.1215014 0.035440743 -0.1848678 0.23718064 0.107494086
-0.14904988 -0.2808384 0.08197351 -0.13384898 0.08090167 -0.1007847 -0.0024137981 -0.16849555
-0.26095992 -0.35027945 -0.15824886 -0.21807674 -0.21785037 -0.1076922 -0.17276502 -0.1441537

tcn.network.0.net.0.weight_g f4 [32, 1, 1]
00000000: 1231 5f3f 123c b53e f6c0 d03e 0328 063f
00000010: 4cf4 023f da61 9e3e 91c8 233f 7dbe 2d3e
00000020: 06c8 383f 9c57 353f 8a69 703f bc54 503e
00000030: c9cc a73e 27e3 093f 18e1 eb3f e3b7 2a3f
00000040: e790 173f fdb3 243f 0cfa 133f 20be 033f
00000050: 2fdc 813e 3058 943f 3e0b 1b3f 5b44 513f
00000060: 973d d23e abb9 6b3e b533 073f b1ae 043f
00000070: b228 183f effe d43e 3aaf 003f a07c 673f
0.8718425 0.35397393 0.40772218 0.52404803 0.5115402 0.3093403 0.63977915 0.16967197
0.7218021 0.70836806 0.9391104 0.20344824 0.32773426 0.5386223 1.8428068 0.6668684
0.5920548 0.6433714 0.57803416 0.5146198 0.253633 1.1589413 0.6056403 0.8174493
0.41062614 0.23020045 0.52813274 0.5182906 0.59437096 0.4160075 0.50267375 0.9042454

tcn.network.0.net.0.weight_v f4 [32, 12, 4]
00000000: fe83 7b3e 6faa 963d bde4 c23d 00d3 b73e
00000010: aef7 b13c 63e2 2d3b 7d1f 14be 792a b1be
00000020: 6a06 043f 713c 143f 74c9 03be a040 be3e
00000030: 5372 a0be b3a5 a0be 8b38 a0be 3880 9fbe
00000040: 9a4e 203f 0329 843f d946 9c3f 390d 893f
00000050: c728 03bf 8398 14bf 15e4 30bf 0126 33bf
00000060: a4a1 28be 2e46 89bd bed8 43be 826f 80be
00000070: 3632 9cbe f7d3 95be 7793 c8be 646e a6be
00000080: d797 da3c 442f 543d e2ec 1b3d 10e9 c73c
00000090: 33ef 28bf 569a 0fbf 157e dfbe 08bd dcbd
000000a0: 07d0 89be cc2c 5dbe cada 66be e789 35be
000000b0: 19d2 36be 08d5 67be c9b1 3dbe 6d33 d43d
000000c0: ad8a 07be b321 923e e025 2d3e 6e79 11be
000000d0: 3b7a f2bd 9ca0 d23d 91d6 f2bc 469c 8dbd
000000e0: f2f0 143e 952d 483e 492f f5bd 2842 89bd
000000f0: c064 b1be af17 253e 7d61 b6be debe ccbd
00000100: a440 d6be eaa0 c8be 1be7 a8be c02c cfbe
00000110: 9da2 723e 62c0 713e 46b4 9bbd ad0a 203e
00000120: 260d af3e 26ca a03e 6b56 a8be 8df6 9cbe
00000130: 5e48 b0be 2bad bebe 3277 5e3e bc39 9fbe
00000140: 1f3c 5dbe a996 66be c2f6 69be 91bc 5fbe
00000150: 9a52 eabd 3d18 b5be b447 79be 0ac1 adbe
00000160: 9ae1 cabe 0137 8ebe 9f43 c4be eea7 c6be
00000170: 9b08 d2be a195 b0be ce28 d73c d760 d53d
00000180: a3de c6bd c5ce 013f 69ab 2fbd 926a 863e
00000190: 20c2 36bd 38a5 fabd 6ea8 d8bd c52f 5abe
000001a0: 0805 793e 880c a23e e906 9d3e 41b5 313f
000001b0: 923b b7be b064 7ebe bd13 5dbe de44 78be
000001c0: 9dbe f13e 4191 023f 1217 263f e00b 7cbd
000001d0: 8f04 e9be f719 4fbf e2ee 04bf d70c 47bf
000001e0: 6380 87be ac58 56be 9c35 ddbd a61d 59be
000001f0: 0196 d1be 5dad 05bf be15 d5be 8d71 fcbe
00000200: ea03 adbe 74f8 c1be c9c1 9f3d c9cc c5be
00000210: 8fcb 24bf 74dc a1be 653a a6be e20f 143e
00000220: c55c 723e 5a53 323e e2e3 9fbe 941a ea3d
00000230: d4f1 cebe 66ea a2be b2b2 a6be ab87 b3be
00000240: e434 9dbc 5d06 aabd 9980 4bbd 1c25 13be
00000250: 0b50 383d 4c1f bdba 7708 e4bd 5083 c73c
00000260: f251 c9bb 46d0 9fbd b630 82bd 3383 38bd
00000270: 778b a7bd b276 f1bc 25c4 da3c ba37 263e
00000280: dbb5 16be 4279 16bc f4c5 993d 46d7 15be
00000290: 1eaa b23d bed0 bbbc 0295 ebbd 2430 aa3d
000002a0: f8f0 1f3e cded a23d 3152 99bd 3abd 0dbe
000002b0: 9f44 8bbd 30d8 48bd 7a25 433d ea2f ac3c
000002c0: cb67 16be e56f 73bd 9cff fb3c 28e0 6fbd
000002d0: 31f0 b53d 58f2 39bd d05a d5bd 61f9 9bbd
000002e0: e1ea 24be 2dc2 51bd 7c53 e03d e9a2 d9bd
000002f0: 8a3c ffbd 6dfb 0a3e 046d 08be 9f6b 27be
00000300: 2e0d b13d 221e e83c 115c bf3e 6535 473f
00000310: 792d 89be 85bb 4bbe 1608 51bd ff06 87bd
00000320: 70c9 833e 27b8 c4bd fa24 8f3e 8f1b 4b3f
00000330: 5639 c33d a1a6 f33d b802 00be 53a9 86bb
00000340: 2907 003d 519c 8b3e 29c0 313e 162f 86be
00000350: bb05 dfbe d572 01bf 6c4a 41bf 8515 e1be
00000360: 95c6 efbd e346 243e 7c0a ab3c 9f26 d13d
00000370: 5574 64be 986f f2bd 750f 29be 0a54 47be
00000380: 72df 87be 8c21 59be 3693 e7be 3760 babe
00000390: 6c93 13bf 48a8 c9be ad9b 74be 1630 edbd
000003a0: d155 a1bb fc6f ed38 69d5 9abd cab2 40be
000003b0: 6566 1bbe b411 8fbe 9da5 93be 415c d5be
000003c0: 6588 dcbc f600 4dbe 27fd d33e 0a57 e2bd
000003d0: 5187 ccbd 53df bcbd 91e1 a2bd e7bc 8ebe
000003e0: 8f82 a3be 6604 abbe 08c1 fe3e c700 a93e
000003f0: d92c fc3e 4561 ac3e 6ac7 dc3e b14c d1be
0.2456207 0.073567264 0.095162846 0.35903168 0.021724548 0.0026532642 -0.14465137 -0.34602717
0.5157229 0.57904726 -0.12869817 0.3715868 -0.31337222 -0.31376418 -0.3129314 -0.3115251
0.62619936 1.0325016 1.2209121 1.070716 -0.51234096 -0.58045214 -0.69098026 -0.69979864
-0.16467911 -0.06702839 -0.1912565 -0.25085074 -0.30507058 -0.2926328 -0.39175007 -0.32506096
0.026683731 0.05180289 0.038067706 0.024403125 -0.6598999 -0.5609487 -0.4365088 -0.10778242
-0.26916525 -0.2159912 -0.22544399 -0.17728387 -0.17853583 -0.22639859 -0.18524851 0.10361371
-0.13236494 0.28541335 0.1690898 -0.14206478 -0.1183972 0.1028454 -0.029643329 -0.069145724
0.14545038 0.19548638 -0.119719096 -0.067020714 -0.3464718 0.16122316 -0.35621253 -0.099973425
-0.41846192 -0.39185268 -0.3298882 -0.4046383 0.23694845 0.23608544 -0.07602744 0.15629072
0.3418972 0.31404227 -0.32878432 -0.30656853 -0.34430212 -0.37241492 0.21725157 -0.31098735
-0.21604966 -0.2251841 -0.22848037 -0.21849276 -0.11441536 -0.35370055 -0.24343759 -0.3393634
-0.39625245 -0.2777634 -0.3833284 -0.38799995 -0.4102219 -0.34489158 0.026264574 0.10418861
-0.09710433 0.5070613 -0.04288808 0.26253182 -0.044618726 -0.12238544 -0.105790004 -0.21307285
0.24318326 0.31650186 0.30669335 0.69417197 -0.35787636 -0.24843097 -0.21589561 -0.24245021
0.4721574 0.5100289 0.6487895 -0.061534762 -0.4551129 -0.80898994 -0.51927006 -0.7775397
-0.2646514 -0.20932263 -0.10801241 -0.21202716 -0.40934756 -0.52217656 -0.4161815 -0.49305382
-0.3379205 -0.37884867 0.078006335 -0.386328 -0.64373106 -0.31613505 -0.32466426 0.14459184
0.23668201 0.17414609 -0.31228548 0.114308506 -0.40418875 -0.31819457 -0.3255821 -0.35064444
-0.01919026 -0.08301995 -0.049683187 -0.14369625 0.04499821 -0.0014428883 -0.11134427 0.024354607
-0.006143802 -0.07803397 -0.06356947 -0.045046996 -0.08180898 -0.029475544 0.026704857 0.16232195
-0.1471781 -0.009184184 0.0750846 -0.14632902 0.087238535 -0.022926684 -0.1150303 0.08309963
0.15619266 0.07955513 -0.0748638 -0.13841715 -0.06800198 -0.049034297 0.047643162 0.021018941
-0.14688031 -0.059432883 0.030761532 -0.05856338 0.088837035 -0.045397133 -0.10417712 -0.076159246
-0.16105224 -0.05121057 0.109534234 -0.10626776 -0.12462719 0.13572474 -0.13322836 -0.16349648
0.08645092 0.028334681 0.3737493 0.7781585 -0.26792505 -0.19895752 -0.051033102 -0.06593131
0.25739622 -0.09605437 0.27957898 0.79338926 0.0953242 0.11897016 -0.12501037 -0.0041095405
0.03125683 0.27267697 0.1735846 -0.262078 -0.4355906 -0.50565845 -0.75504184 -0.4396173
-0.117077984 0.16042666 0.020879023 0.102124445 -0.22310002 -0.11837691 -0.16509803 -0.19465652
-0.26537663 -0.21204203 -0.452295 -0.3640153 -0.5764682 -0.393862 -0.2388751 -0.11581437
-0.00492356 0.000113218994 -0.07560236 -0.18818203 -0.15175779 -0.27943194 -0.2883729 -0.41671947
-0.026920507 -0.20019898 0.41404077 -0.11051758 -0.09986747 -0.09222283 -0.0795318 -0.27878496
-0.31935546 -0.33401793 0.49756646 0.33008406 0.49252966 0.3366796 0.4312089 -0.40878823

tcn.network.0.net.4.bias f4 [32]
00000000: de92 98be 9979 663e 8636 86bd 67b3 873e
00000010: 9a9a d23d dc84 91bc 42ee 03be 6d34 adbc
00000020: 9073 f6bc ab85 a4bb 0aaa 01be 2195 20be
00000030: d6e6 febd 058a bc3b ce10 783e 443c 3a3b
00000040: 118b 37be 5af2 cbbe 4ffd 8bbc bd77 efbd
00000050: 196c 1bbe 1373 4c3e c788 24be 7585 ce3d
00000060: 3103 cabd 10dd 1abd 7e01 14bd 5b3b 38be
00000070: f7ef 8bbd 201f 0abe 2e83 233e 47e5 a23e
-0.2979955 0.22507323 -0.06553368 0.2650406 0.10283394 -0.017763548 -0.12883857 -0.021143163
-0.030084401 -0.0050208173 -0.12662521 -0.15681888 -0.12446372 0.005753758 0.2422516 0.0028417269
-0.17924143 -0.39833337 -0.01708856 -0.1169276 -0.15177955 0.19965772 -0.16067801 0.10084049
-0.0986389 -0.037808478 -0.036134236 -0.17991392 -0.06832879 -0.13488436 0.1596801 0.3181555

tcn.network.0.net.4.weight_g f4 [32, 1, 1]
00000000: 79e0 113f b148 46be bc69 c83c 9171 fc3e
00000010: d749 0c3f c1e6 5d3e 97af d73e 1127 c83e
00000020: 6f12 2b3e 8131 583e 1c4c 013f eeec d33e
00000030: 2e12 df3e 4409 033f e13e 923e cfad de3e
00000040: 20a5 e33e fc15 273f 1406 293f 6e5c 053f
00000050: deb9 ea3e 767f 3b3f fb50 0c3f 13a7 043e
00000060: 7430 023f ea5f 133f 7e04 f73e f23c 4e3e
00000070: 927a da3e 02e5 0a3f 3ee7 e53e 0a0a d73e
0.56983143 -0.19363667 0.02446448 0.49305394 0.5480017 0.21670057 0.42126152 0.39092305
0.1670625 0.21112634 0.5050676 0.413917 0.43568558 0.51186013 0.28563598 0.4349198
0.44461918 0.6526792 0.660249 0.5209416 0.4584493 0.73241365 0.54811066 0.12954359
0.50855184 0.5756823 0.48245615 0.20140436 0.4267164 0.5425569 0.44902986 0.41999847

tcn.network.0.net.4.weight_v f4 [32, 32, 4]
00000000: fb54 de3f 6160 8d3f 683c 733f 9581 413f
00000010: 195a c3be 8573 40be eb58 7dbe 9c88 613e
00000020: 3714 233f 69e3 183f 3473 f33e 504b ff3e
00000030: d523 82be d3d8 933e 9d10 703e e37d 8ebe
00000040: 3c35 0c3f 1832 0a3f 17a3 133f 748b 1e3f
00000050: 68e3 8bbe 00d2 f43d 72e5 c63e 36f4 dcbe
00000060: 7c25 343e 261f 27be 1a23 1cbf cb72 76be
00000070: a878 133e c412 193f 30df 083f f07f 5c3f
00000080: b25a 2a3f 6cff 2abf 0ffe f4be cc6a 9fbe
00000090: 299c 733f acdb 053f be3b 0c3f 6312 6abe
000000a0: 9eca ddbd e22b 9dbb 950d eebd b0a9 613d
000000b0: 5ef5 573e 4bd7 b33e e927 9e3e b33f 533e
000000c0: f65f ee3e c022 0a3f 19e3 f73e 4aca f93e
000000d0: 4cc2 8cbe 7c32 bd3e 2bb0 923e 9ca3 2bbe
000000e0: d48c 47bd fc94 20be 3b75 03be 375f 92be
000000f0: 67ce b5bd 748f e3bc fd1a 143b 2814 7e3e
00000100: 1b86 3e3f 284f 163f 231b 713e efdd ec3d
00000110: 069e b23e ed86 1b3f c9f3 063e 8979 ba3e
00000120: 3e48 22be e187 50bc df76 a2be a98a b1be
00000130: bdb7 cdbe 499b dabe f308 8d3e a950 dabd
00000140: fe36 123e 6163 093e fab3 e73e 87e9 3f3f
00000150: 3407 8e3e aec7 d53e 1482 f33e cd30 653e
00000160: 744d c63f 1ca6 b03f 4121 5f3f aadc 593e
00000170: ed43 c8be 116f 723d 70a1 a6bd 3bfb 88be
00000180: 424f b4be da5a 7d3e d662 943e 23c9 70be
00000190: 7c55 0c3f 8bd1 033f c11c d63e a067 023f
000001a0: 04a0 a03e 0a4e 80be 1905 b53e d6d5 9d3b
000001b0: ccfa 913e 7f12 1a3e b768 87be 8904 4c3e
000001c0: 9ad1 563e d318 79bd 4b95 a2be db9d 6f3d
000001d0: ffeb 99be daca 36be 5674 4e3e ce69 703e
000001e0: b8be 6b3f 13ce 593f c11b 513f 73a8 383f
000001f0: 0aa3 dbbd 8ed7 4dbe 0f55 0bbe 0f75 aebe
00000200: a04c 52bf 1c53 f1be 433a 4fbf 3d24 f7be
00000210: 311a 78be f82b 75be 0b8f 8bbe 14a5 09be
00000220: b7d9 90be 6e42 b5be 285f 27a6 e284 ca3c
00000230: ab7b 9d3e d1c1 1d3f 4902 6b3e b329 12bf
00000240: 85b4 2abe b79d 7e3d 1d9b 593e 4027 933e
00000250: a8e4 ddbe dcb3 05bf 2834 81be 00de 10bf
00000260: 9b92 483e e162 083f 1543 723e bcd6 453e
00000270: 0ef5 b03e 47cd 823e 38fc 303e 8a17 0b3f
00000280: 710b 08be 905d b13d 040f 403d 2cd2 0abd
00000290: cdb8 2ebe 223a 4ebe 1cde 2a3b 183f 133e
000002a0: a65e 203f 1f2f 153f 0219 433f dfb1 db3d
000002b0: 9a95 8bbe bc36 d53e 9002 bc3e c1be ddbe
000002c0: f2f3 883e ba84 923e 8c0b 8f3e 6697 293d
000002d0: dd70 923e fd33 0abf 465a e93e 6975 efbd
000002e0: da34 3cbe c7ba d13d d4f9 5f3c 5c9a efbd
000002f0: 588f 4b3e 2417 dc3e 0074 8fbd c294 163e
00000300: 2841 edbe 55c3 3dbf 8b98 76bf b394 81bf
00000310: ef4c 0a3c d2af 13be 8991 ebbd 8604 593e
00000320: 7680 4a3f 128c d7be 3bdb cabe 9d09 e43e
00000330: 30ea 0c3f a65d fbbe 0528 0d3f a7d4 103f
00000340: 2c84 613f e01c 013f d553 7a3f 7a74 85be
00000350: 2381 0dbe 78bb e9be d543 71bf 3ade 15bf
00000360: f80c 08bf 4c46 01bf 1b92 cebe 94e5 b93d
00000370: 43b2 d0be 30f1 90be f3c8 dfbe f2ef b03e
00000380: 0448 35bf 91b2 2abf 8ebe 42bd c928 29bf
00000390: ae1b d73e 8fc5 b6be 0400 483e 512d a73a
000003a0: e924 24bf 7cc1 32bf 89f8 e2be c5dc c13e
000003b0: e73b 4a3d 2dcc 90be e484 72be f0ab 90be
000003c0: 249c 42be 2a52 32bd cb32 d3bd f303 ebbd
000003d0: 4918 0c3f f3eb 91be 6f1b 053f c82e 4e3e
000003e0: 3b5e cc3d a04b 78bc c8f4 30bd 879d df3d
000003f0: 793c e33e 5eea de3e 68f4 32bb 0837 023f
1.7369684 1.1045038 0.9501405 0.7558835 -0.38154677 -0.18794067 -0.24740951 0.22024769
0.6370272 0.59722 0.4754883 0.49862146 -0.25417963 0.2887636 0.23443837 -0.2783042
0.5476873 0.53982687 0.5767073 0.6193154 -0.27321935 0.11954117 0.38846928 -0.43155068
0.17592424 -0.16320476 -0.6099106 -0.24067228 0.14401495 0.5979426 0.5346556 0.8613272
0.6654464 -0.6679599 -0.4785008 -0.31136167 0.95160156 0.5228832 0.5477866 -0.22858576
-0.10829662 -0.004796491 -0.11623684 0.055093467 0.21089694 0.35125193 0.30889824 0.20629768
0.46557587 0.53959274 0.4841545 0.48787147 -0.27491987 0.3695258 0.2865003 -0.16761631
-0.04871829 -0.15681833 -0.12837689 -0.28588268 -0.08877259 -0.027778365 0.0022599094 0.24812376
0.7442338 0.5871453 0.23545508 0.11565768 0.34886187 0.60752755 0.13178934 0.3642085
-0.1584787 -0.012727709 -0.31731316 -0.34676102 -0.40179244 -0.42696598 0.2754589 -0.10659916
0.1427879 0.13416816 0.452545 0.7496571 0.2773987 0.41753906 0.4756018 0.22381897
1.5492387 1.3800693 0.87160116 0.21275583 -0.39114323 0.059187952 -0.081362605 -0.26754174
-0.3521672 0.24741688 0.28981656 -0.23514228 0.5481794 0.5149161 0.41818812 0.5093937
0.31372082 -0.2505954 0.35355452 0.004816751 0.28511655 0.15046118 -0.2644708 0.19923605
0.20978394 -0.06081469 -0.31754526 0.058500152 -0.30062863 -0.17850819 0.20161566 0.23477861
0.9208789 0.8508007 0.81682974 0.72132033 -0.107244566 -0.20101759 -0.13606666 -0.34073684
-0.8214817 -0.4713372 -0.80948275 -0.48269835 -0.24228741 -0.23942554 -0.2725757 -0.13441879
-0.28291103 -0.35402244 -5.8068725e-16 0.024721567 0.30758414 0.61623865 0.2295009 -0.5709488
-0.16670425 0.062162127 0.21250577 0.28740883 -0.43338513 -0.5222757 -0.25235105 -0.56588745
0.19587176 0.5327588 0.23658402 0.19320196 0.34561962 0.2554724 0.17283714 0.5433279
-0.13285615 0.08660424 0.04688932 -0.03389184 -0.17062683 -0.20139363 0.002607233 0.14379537
0.6264442 0.58275026 0.76210034 0.107272856 -0.27262574 0.41643322 0.36720705 -0.43309596
0.26748616 0.28616887 0.27938497 0.04140415 0.28601733 -0.5398558 0.45576686 -0.11692316
-0.18379536 0.10240703 0.0136704035 -0.116993636 0.198789 0.42986405 -0.07004547 0.14705184
-0.46338773 -0.7412618 -0.9632651 -1.0123504 0.008441194 -0.14422539 -0.11502368 0.21193132
0.79102266 -0.42099053 -0.39620385 0.44538584 0.5504484 -0.49094886 0.5513919 0.5657448
0.88092303 0.50434685 0.9778417 -0.26065427 -0.13818793 -0.4565084 -0.9424413 -0.58542216
-0.5314479 -0.5049789 -0.40345845 0.09076992 -0.40761003 -0.2830901 -0.43708 0.34558064
-0.7081301 -0.6667872 -0.04754501 -0.6607786 0.42013305 -0.356976 0.19531256 0.0012754594
-0.6411882 -0.69826484 -0.44330242 0.37863746 0.049373534 -0.28280774 -0.23683506 -0.28256178
-0.19004875 -0.04353539 -0.10312422 -0.11475363 0.54724556 -0.28500327 0.51994985 0.20135033
0.099789105 -0.015154749 -0.04320219 0.10918718 0.44382074 0.43538183 -0.0027306322 0.5086522
